StreamLit_ver/model.pth (torch, 9844 bytes, 6 tensors)

layer1.weight f4 [8, 167]
000000 fb 51 ff 3e c9 ba 12 3f c0 1b ff 3c 99 e1 a9 3e
       0.49867234 0.5731626 0.031141162 0.3317993
000010 cf 89 ae bd 9d 50 97 bd 96 ed 2e 3f f3 be e1 be
       -0.08522379 -0.07388423 0.6833128 -0.44090995
000020 e5 53 3e bf 79 a5 2b 3f d0 72 91 bb a3 27 90 be
       -0.7434676 0.67049366 -0.0044387355 -0.2815524
000030 76 56 8b 3e 14 e0 5f 3f 57 09 a4 bf 9e a1 76 3e
       0.27214402 0.8745129 -1.281535 0.2408509
000040 85 14 07 3f b4 61 96 3d d8 c9 ac be 88 ba cc be
       0.52765685 0.07342854 -0.33747745 -0.39986062
000050 36 db b9 be 9f a5 9c be b7 da 88 3f 91 ef 2d 3f
       -0.36300057 -0.3059511 1.0691746 0.67943674
000060 16 ea 4e be d7 ef 61 3f b9 91 9e bf 70 e1 82 3d
       -0.20206484 0.8825659 -1.2388221 0.06390655
000070 c4 49 56 3d 7a 33 15 3f f7 42 e3 3d aa e9 44 3f
       0.052316442 0.5828167 0.11096757 0.76919043
000080 54 7e d3 3e 27 7a e3 3d 40 2c 26 bf e6 eb 26 bf
       0.41307318 0.11107283 -0.6491127 -0.652037
000090 c4 86 c1 be 7b 8c 20 3e 7e ac f1 be 27 e7 4d be
       -0.3779813 0.15678589 -0.47201914 -0.20107709
0000a0 d6 8b 33 3a 32 f6 43 bf 64 dc 54 3f f9 2c 4e 3f
       0.0006849145 -0.7654754 0.8314879 0.8053737
0000b0 c9 00 82 3e a9 57 4c 3f 49 d9 4a 3f d0 34 48 3e
       0.25391224 0.7982126 0.792378 0.19551396
0000c0 54 a9 5d bf 11 9c 20 bf 46 9b 25 bf 45 c7 dc 3e
       -0.865865 -0.6273814 -0.64690053 0.4312078
0000d0 23 9f 4d 3f d6 29 0b 3f 54 c6 47 bf 81 ba 8e 3e
       0.8032095 0.5436071 -0.78037 0.27876666
0000e0 11 4c cc 3e 94 53 44 bf 2f 40 54 bf 44 47 db 3d
       0.39901784 -0.7669003 -0.82910436 0.10706952
0000f0 c9 23 08 3e c4 7f 23 3e 49 20 b9 be 27 82 83 3d
       0.13294901 0.15966707 -0.36157444 0.06421309
000100 4a fe 82 3d de 6e f4 3e bb d1 c4 be b0 2d 26 3f
       0.06396158 0.47740835 -0.38441262 0.64913464
000110 ef 19 43 3f ca 13 33 3f f3 2b 15 3f 78 15 a3 be
       0.76211447 0.6995207 0.58270186 -0.31852317
000120 c4 cf 51 be 40 0d 16 3f fb 06 85 be ed ec 3c bf
       -0.20489413 0.5861397 -0.25981888 -0.7379902
000130 3a 7b df 3e a3 9a dd 3e fc 12 90 be b7 a8 5d 3f
       0.43648702 0.4328204 -0.28139484 0.86585563
000140 89 63 33 3f 43 ed e7 be 21 fc 63 be a8 86 be 3e
       0.70073754 -0.45298204 -0.22264148 0.3721211
000150 8e 81 22 3f fd a7 bb 3e c1 11 b0 3d 98 ad a8 be
       0.63478935 0.36651602 0.08597136 -0.32944942
000160 a0 38 cd 3e e2 ec 2c bf d8 9a 18 be 5a 4e d8 be
       0.40082264 -0.67548954 -0.14902818 -0.42247277
000170 91 57 92 3e 46 28 54 3e b7 4e ae bf a9 bc d6 3e
       0.28582433 0.20718488 -1.3617772 0.4194081
000180 b3 d1 a7 bf 12 9f 67 bf e7 76 38 bd d0 cb 39 3f
       -1.311087 -0.904771 -0.04503527 0.7257662
000190 9b 9b 9f 3e ed 9e 44 3f 63 06 66 3f 5e 7e 70 bd
       0.31173405 0.76805 0.89853495 -0.058714263
0001a0 39 3a e9 be 92 3e cd be a9 23 4b 3f 66 98 17 be
       -0.45552233 -0.400868 0.7935129 -0.14804229
0001b0 4b 67 1e 3f b0 be 7b be 9c 7a 88 3e e2 2b a7 3e
       0.6187636 -0.2458446 0.26656044 0.32650667
0001c0 a0 8b a2 be 2a eb c4 3e 05 f2 b6 3e 2c 2c 06 bf
       -0.3174715 0.38460666 0.3573152 -0.5241115
0001d0 ee 8c ed 3e e5 63 2f bf bc ca 55 be 78 53 2d 3e
       0.46396583 -0.685118 -0.20878118 0.16926372
0001e0 60 12 26 3f d3 72 fc 3e 9f eb 29 3f c7 82 c7 3e
       0.6487179 0.49306354 0.66375154 0.38966963
0001f0 ad ee d8 3e 6d b8 f0 3e 95 83 e2 3e be d3 a1 3e
       0.42369595 0.47015706 0.44241014 0.3160686
000200 3b d8 2d 3f 7b 96 81 3e ce 31 87 3c e2 17 36 3f
       0.67908067 0.2531012 0.01650324 0.7113019
000210 3e ff ee 3e 76 91 e3 3e 3e 04 b9 3e 1f 77 d1 3e
       0.4667911 0.44446915 0.3613605 0.40911195
000220 9a e7 e9 bc bf 3a 4b 3f 60 89 7b 3e 59 ce 8e 3e
       -0.028552819 0.79386514 0.24564123 0.27891806
000230 ae 4a b4 3e e9 8a 01 3f 04 ec 07 3f 4a 1b 8a 3e
       0.35213226 0.50602585 0.53094506 0.26973945
000240 1e c1 29 3e f1 e7 18 3f 4c 7f da 3e c6 7b f2 3e
       0.16577575 0.59728914 0.42675245 0.47360057
000250 0e 45 01 3f d8 6f db 3e f5 2a 39 bf e0 1a e9 3e
       0.50495994 0.42858768 -0.7233117 0.45528316
000260 f2 fa d3 3e 3b cb c1 3e d4 20 19 3d 4f 12 e3 3e
       0.41402394 0.37850365 0.037384823 0.44349906
000270 0f a0 01 bd 4c cd c4 3e 8e fa 83 3e aa 92 a2 be
       -0.031646784 0.3843788 0.25777096 -0.3175252
000280 1b 1d 30 be ad 36 15 3f 52 83 fe 3e ec a7 c5 3e
       -0.17198603 0.58286554 0.49709564 0.38604677
000290 0f a6 36 3f 3f b3 0c 3f 06 62 9a bc ee 07 22 be
       0.71347135 0.5496101 -0.01884557 -0.15823337
0002a0 a5 de 75 3f de 14 3e bd 92 6c 77 3f b4 f6 ae bd
       0.96042854 -0.04640662 0.9665004 -0.08543149
0002b0 8e 64 ba be f5 0f 91 3e f1 37 8b 3e f1 c9 b6 3d
       -0.36404842 0.28332487 0.27191117 0.08925236
0002c0 cf f0 12 bf 52 a5 89 bd 23 e1 b2 be 80 34 22 3f
       -0.57398695 -0.067209855 -0.3493739 0.6336136
0002d0 f2 9b 83 3f 2a 4b ae bf 35 4b 75 3f 7e 0e fe 3e
       1.0281966 -1.3616688 0.9581788 0.49620432
0002e0 ea 53 b4 bc 80 cf 16 3f 23 41 40 be c1 9a 8b bf
       -0.02201267 0.5891037 -0.18774848 -1.0906602
0002f0 e4 96 a9 be 34 a9 3e be 19 57 75 3f c8 22 03 3f
       -0.33122933 -0.18619233 0.95836025 0.51224947
000300 4d 0c 8f be f2 56 8d bf 6c fb 51 3d 04 2b e0 3c
       -0.27939072 -1.1042159 0.051265165 0.027364261
000310 0a cf 83 3e d2 04 a3 bd 3c fb 72 3e b0 16 fd 3e
       0.25743896 -0.07959904 0.23728651 0.49431372
000320 b9 37 bf 3e d3 1d 90 3f e4 6f 5b bf 30 fa 0e 3e
       0.373472 1.1259102 -0.85717607 0.13962626
000330 55 64 af 3e 08 5d eb bd d9 be e4 bd ed f4 03 3d
       0.34256235 -0.11492354 -0.11169214 0.032216
000340 fd 29 31 bf be 5e 25 3e 59 0a 2c 3e cf 9c 16 bc
       -0.69204694 0.16149423 0.16800822 -0.0091926595
000350 1d 20 7a 3f a8 20 d4 3e 29 9e 44 bd 0e b3 80 3e
       0.9770525 0.41431165 -0.048002396 0.25136608
000360 f1 4b f5 be f1 2a 46 3f 9c e0 14 3f 1b 54 fb 3d
       -0.479095 0.77409273 0.58155227 0.12271901
000370 69 9e cb be 99 e5 29 3e 69 dc ed 3d 67 da 5b 3f
       -0.39769295 0.16591491 0.116143055 0.8588013
000380 57 7d 32 bf 02 b8 c2 be 43 64 d8 be f7 0c 00 be
       -0.69722503 -0.38031012 -0.42263994 -0.12504946
000390 08 36 cc bd 9f 34 c6 3d 81 29 13 be af 4f 09 be
       -0.09971243 0.096780054 -0.14371301 -0.13409303
0003a0 33 8d 90 3e 50 44 3c be 41 ec c2 3d ac c7 b4 3e
       0.28232726 -0.18385434 0.09517718 0.35308588
0003b0 4a cb 6d bf 48 b8 69 be 96 69 b7 be 74 a4 07 bf
       -0.9288832 -0.22824204 -0.35822743 -0.5298531
0003c0 d1 96 bf bd d0 20 06 bf 72 40 cf 3d dc df 6b 3f
       -0.09354938 -0.5239382 0.10119714 0.9213846
0003d0 7e c1 15 3f 39 64 49 bf dd 89 ed 3c 3d a8 61 bf
       0.5849837 -0.7866855 0.028996402 -0.88147336
0003e0 3b be 06 bf 53 a0 17 3d 0d ae 9e 3c 44 ad a7 bd
       -0.5263402 0.03701813 0.019370103 -0.08187345
0003f0 f2 02 1c 3f 44 8b 5e 3e e6 e7 15 bf 0d 6a 70 3f
       0.60941994 0.21732813 -0.58556974 0.9391182

layer1.bias f4 [8]
000000 85 cb 83 3f cc f3 7d 3f 7c 6d 82 3f c0 d5 61 3f
       1.0296484 0.9920013 1.0189662 0.8821678
000010 1d b9 84 3f 6f 53 39 3f 33 85 55 3f 32 4e 3c 3f
       1.0368992 0.72392935 0.8340637 0.73556817

layer2.weight f4 [8, 8]
000000 44 14 5c bf 77 b3 48 bf 87 87 fe 3e 02 ed 84 3f
       -0.8596842 -0.7839884 0.49712774 1.0384829
000010 d8 10 a1 3f cd b0 ab 3f 86 96 5e 3f c8 cb 40 bf
       1.2583265 1.341333 0.8694843 -0.75310946
000020 dc 3f df bd b2 5e 33 be b0 5b 70 bd 98 36 6b 3d
       -0.10900852 -0.17516592 -0.05868119 0.05742511
000030 60 87 32 3c 18 a2 8c bd d3 bb 1a be 78 e4 90 be
       0.010896534 -0.068668544 -0.15110712 -0.28299308
000040 c7 b1 ac 3f 95 2b 7b 3f df 55 bf be 48 6f f2 bd
       1.3491753 0.98113376 -0.37370202 -0.118376315
000050 43 f2 a6 3f fe 5f 92 bf ab b9 5d 3f c3 b4 91 bf
       1.3042682 -1.1435544 0.8661143 -1.1383289
000060 27 19 82 3f f8 31 71 bf db fb 09 3e f6 7a 9a 3f
       1.0163926 -0.9421687 0.13474981 1.2068775
000070 56 b9 82 3f 31 69 88 bf 43 79 51 bf 44 72 ac 3f
       1.021281 -1.0657102 -0.81825656 1.3472371
000080 9f 68 c9 3e f5 c0 81 bf 00 ee 53 bf 52 ce 43 3f
       0.39337632 -1.0137011 -0.82785034 0.76486695
000090 22 a9 5c 3f b9 a3 c7 3e 9a 6f 86 3f 83 71 5b bf
       0.86195576 0.38992098 1.0502808 -0.8572008
0000a0 c3 8b 80 3f c2 b6 a3 3f 2a a3 a7 bf 0e f0 a6 3f
       1.0042652 1.2790148 -1.3096669 1.3042009
0000b0 3b b9 b9 bd 1a ee 6a 3f 83 5a b4 3e 19 a9 75 bf
       -0.09068533 0.91769564 0.35225305 -0.9596115
0000c0 ae ce 5a 3f 80 f6 91 3f 2c 76 a6 3f cf f2 9b 3f
       0.8547162 1.1403351 1.3004813 1.2183474
0000d0 b3 14 88 bf 03 86 25 3f c5 e2 09 bf 69 36 96 bf
       -1.0631317 0.6465761 -0.5386165 -1.1735355
0000e0 7e d2 71 3f 33 a9 66 3f 8b a4 9d 3f 15 77 2e bf
       0.9446181 0.9010193 1.231584 -0.68150455
0000f0 4e ad aa bf 2e a4 59 3f dc 64 ae 3f f9 ea f1 3e
       -1.3334138 0.85016143 1.362453 0.47249582

layer2.bias f4 [8]
000000 ae c2 a4 3f 1c 3c e6 bd 2e 41 8a 3f 6c fc 7f 3f
       1.2871912 -0.11241934 1.0801141 0.9999454
000010 16 0b f9 be 2d dd 73 be 47 dd 0b 3f a2 bd e5 3e
       -0.4864127 -0.2381484 0.5463452 0.4487124

layer3.weight f4 [50, 8]
000000 28 df 96 bf 80 2b 7d bc c3 f1 66 3f 9c cc a3 be
       -1.1786852 -0.015452266 0.9021265 -0.31992042
000010 2c 17 82 bf c4 8e 03 be b4 05 7a bf 92 ba 86 3f
       -1.0163321 -0.1284743 -0.9766495 1.0525687
000020 d2 d3 16 3f fc 4b 89 3d 67 aa 84 3f c7 1c 86 bd
       0.5891696 0.06703946 1.0364503 -0.065484576
000030 1f 99 b4 bf 39 00 b2 be a3 66 f9 3e 57 37 87 be
       -1.4109229 -0.34765795 0.48711118 -0.26409408
000040 25 49 25 bf 40 f0 03 3d f6 e9 5d bf 24 7a 68 bd
       -0.64564735 0.032211542 -0.8668512 -0.056757107
000050 27 c9 b3 bf 0d 20 09 3f 41 1b c9 be 25 b0 8d 3f
       -1.4045762 0.5356453 -0.39278606 1.106938
000060 55 0b 8e 3f 77 0f ab 3e 51 9b a4 bf 13 ce 31 3f
       1.1097208 0.33410236 -1.2859899 0.6945507
000070 b2 a1 65 3e 78 75 64 bf bd 0d b8 bf e9 74 1a bf
       0.22424963 -0.89241743 -1.4379193 -0.6033464
000080 7c 65 95 bf 80 a4 f1 bc e7 6d 12 3f 14 43 71 bf
       -1.1671596 -0.029497385 0.5719895 -0.9424298
000090 a0 f0 11 bf 30 d8 3c bf 92 14 2e 3f 54 56 55 3f
       -0.5700779 -0.73767376 0.6800014 0.8333485
0000a0 70 ea a8 bf 43 16 57 be 4c 37 8d bf b1 e5 36 3e
       -1.3196545 -0.21004586 -1.10325 0.17861058
0000b0 d1 fe 1e bf 1f 71 85 bf 88 8c 26 3f 32 6f 5b 3f
       -0.6210757 -1.0425147 0.65058184 0.85716546
0000c0 ae c8 89 bd a0 70 31 3d be c4 db be 4c f0 94 be
       -0.0672773 0.0433203 -0.4292354 -0.29089582
0000d0 90 d9 cd bd d8 0b fa be bd 58 89 3d 10 03 dd be
       -0.100512624 -0.4883716 0.067063786 -0.431664
0000e0 01 eb b7 3e d1 4b 22 be 5c 96 1b 3e 39 9a 78 3f
       0.3592148 -0.15849234 0.15194076 0.97110325
0000f0 e5 4f 1c bf cb 1f a5 bf ec 29 cf be ea 14 3f bf
       -0.6105941 -1.2900327 -0.4046167 -0.7464129
000100 49 38 1e bf a2 96 4e 3e 33 11 33 3f 1f 05 b8 3e
       -0.61804634 0.2017465 0.6994812 0.35941407
000110 1f 7b 2e 3e 0d cb 79 3d 99 0f 85 bf 09 d8 97 3e
       0.17039154 0.06098466 -1.0395385 0.2965701
000120 6b 83 a0 3f 36 52 1d 3e 0e 31 64 3f 7c c7 32 bf
       1.2540106 0.15363392 0.8913735 -0.6983564
000130 9f 3a 15 3f 85 46 10 bf bd 6f 88 bf 91 a7 fd be
       0.58292574 -0.56357604 -1.06591 -0.49541906
000140 1d f9 02 bf a4 ba a8 bd ed 99 99 be 48 e9 22 bf
       -0.51161367 -0.08238724 -0.3000025 -0.6363721
000150 89 79 c1 be 41 dc 0b bf 3a 42 35 bf b1 c6 3c be
       -0.37788036 -0.54632956 -0.7080418 -0.1843517
000160 ad aa fe be 74 23 e1 bd 5f 3e a1 be f6 8e 0f bf
       -0.4973959 -0.1099309 -0.31492898 -0.56077516
000170 07 32 ae be c0 1e 8e 3e f9 5d a2 3d 85 39 05 be
       -0.34022543 0.27757835 0.0792808 -0.13010223
000180 76 19 2b 3f a6 70 77 be 6e 6f a4 bf 63 5b 50 be
       0.66835725 -0.24164066 -1.2846506 -0.20347361
000190 1d a3 a4 3e 91 3b 92 bf 18 45 8d bf a5 10 6b 3f
       0.32155696 -1.1424428 -1.1036711 0.9182227
0001a0 09 9b 34 bf 3e f3 71 3e 32 25 58 be a9 cc 02 bf
       -0.70549065 0.23627946 -0.21107939 -0.51093537
0001b0 75 2a 08 bf 52 41 37 be ff 76 cd be ae 27 b5 3e
       -0.53189784 -0.17896011 -0.4012985 0.35381836
0001c0 d6 17 b0 3e da 42 d5 bd a4 17 b2 be ca e3 94 3e
       0.34393185 -0.104131415 -0.3478366 0.2908004
0001d0 dc 39 da be be 47 cb be 23 f5 16 bf e7 79 09 3f
       -0.42622268 -0.39703172 -0.589678 0.53701633
0001e0 f8 f7 99 bd 28 ea 0e be 49 33 a5 3e a5 48 f3 3e
       -0.075179994 -0.13956511 0.3226569 0.4751636
0001f0 28 4b b7 bf cc 91 be bf 4f 4e 1b bf c8 d9 1e 3f
       -1.4319811 -1.4888244 -0.60666364 0.6205106
000200 5d 78 9f be 24 fd 03 be f0 4c b4 bd e2 39 3b bf
       -0.31146517 -0.12889534 -0.08803737 -0.731352
000210 57 1d a2 3d 74 d2 1b bf 1b c4 2f bf c1 41 89 be
       0.079157524 -0.60868 -0.6865861 -0.2680798
000220 c0 ee 95 bf d6 42 67 be 12 29 64 bf 95 14 6b 3f
       -1.1713486 -0.2258409 -0.8912517 0.9182828
000230 94 bc f4 be a4 a3 12 be fd a1 37 3f e7 c7 3d be
       -0.47800124 -0.14320236 0.7173155 -0.18533288
000240 02 7f 1a 3f 43 f1 94 3e de f3 ae bf b8 ae 76 bf
       0.6035005 0.29090318 -1.3668172 -0.9636035
000250 72 99 84 bf d9 b4 8a bf c1 1f 02 3f c3 13 5f 3f
       -1.0359328 -1.083644 0.508297 0.8713953
000260 0b b9 17 bf 5c d2 03 be d1 26 c5 bf ee 7f a2 3f
       -0.5926673 -0.12873214 -1.5402471 1.2695291
000270 a8 d7 8e bf d5 6d 72 bf 15 86 8d be 4e db 33 be
       -1.1159563 -0.9469884 -0.2764136 -0.17564127
000280 7f 61 62 bf 15 c9 96 3e ac 5e 70 bf 08 fa 95 bf
       -0.8843002 0.29450288 -0.9389446 -1.1716928
000290 d4 23 de be be 20 9f bf 42 ec 0e 3f 4a 33 ae 3f
       -0.4338671 -1.2431867 0.5582925 1.3609402
0002a0 48 5e 8f bf 1a 93 2e 3e e2 1a 61 bf a0 18 80 3f
       -1.1200647 0.17048302 -0.87931645 1.0007515
0002b0 d9 a8 b7 be 29 17 c5 be 4b 9e c9 bf 6c 01 1d 3f
       -0.35871008 -0.38494232 -1.5751432 0.61330295
0002c0 5e d7 62 3d 9a 39 87 be da b7 c3 3e a6 67 5e 3e
       0.05538117 -0.26411134 0.38226205 0.21719226
0002d0 bb b0 c4 be cf 7f 4b 3d 49 83 21 bf cf ab 4f bf
       -0.38416085 0.049682435 -0.6309095 -0.81121534
0002e0 f6 eb fb 3e 2b 6a 89 3e c9 07 40 bf 3f a3 8e 3e
       0.4920346 0.26838812 -0.7501188 0.27858922
0002f0 c4 65 23 3f bf f3 69 3f 5f 27 e8 be c2 66 9e bf
       0.6382716 0.9138755 -0.45342538 -1.2375109
000300 e3 17 f6 be f4 6c ed 3d fc 04 e0 be 4a 5b 88 be
       -0.480651 0.11593047 -0.43753803 -0.26632148
000310 c3 0e a3 be 02 29 b5 be 59 25 a0 bd 8d 76 09 bf
       -0.318472 -0.3538285 -0.078196235 -0.5369652
000320 1b 0e 10 3f 3c 99 a1 3d de 0a de be 45 74 e5 be
       0.56271523 0.07890555 -0.43367666 -0.4481527
000330 d9 aa 30 3f 7c ad 33 3e 23 ce fd be 7c 1f 0d 3f
       0.6901069 0.17546648 -0.49571332 0.55126166
000340 1d 82 ac bf a2 ef 67 3e d6 8a ff 3e f9 13 a4 3f
       -1.3477207 0.22650006 0.4991061 1.2818595
000350 6f c7 8a bf 80 18 93 bf 73 13 76 bf 3f d6 2d bf
       -1.0842112 -1.1491852 -0.9612343 -0.6790504
000360 6d 0f 74 3e 82 67 49 be 17 1c 1d bf 2f 93 8b 3e
       0.2383401 -0.19668391 -0.61370987 0.2726073
000370 eb 36 79 be fa 39 2f bf 01 ac 06 bf ac 62 d5 be
       -0.24337356 -0.6844784 -0.5260621 -0.41676843
000380 a2 fa 15 bf 8a b0 4d be ef c9 ac be 63 0f cf be
       -0.5858556 -0.20086876 -0.33747813 -0.40441427
000390 35 fa 13 bc e4 c3 90 be 22 fd d6 be 78 73 5c be
       -0.009031822 -0.28274453 -0.4199 -0.21528423
0003a0 31 0c 81 bf 21 15 80 3e 43 b9 9f 3f ba 54 2a 3f
       -1.0081846 0.2501612 1.2478412 0.6653553
0003b0 20 a3 ad bf ef f0 ca 3e c0 d5 5d bf 9c 8b 3a bf
       -1.3565407 0.39636943 -0.8665428 -0.72869277
0003c0 af 2b c1 be 4b d1 8f be 45 73 a1 bf 07 11 b1 3f
       -0.3772864 -0.28089365 -1.2613302 1.3833321
0003d0 90 21 07 bf 0a d6 17 3e b3 f1 83 bf c7 0f b2 bf
       -0.5278559 0.14827743 -1.0308136 -1.3911065
0003e0 38 ba 91 be c7 21 ad be 30 cd 93 bf 03 05 d7 3d
       -0.28462386 -0.33814833 -1.1546993 0.10499003
0003f0 ae ce 51 bf 4a 14 54 3e c0 f7 70 3f fa ce 6d 3e
       -0.81955993 0.20710865 0.94128036 0.23223487

layer3.bias f4 [50]
000000 d5 09 77 3e fa 7c 5c 3f 93 00 e8 be 73 8b d0 3e
       0.24124844 0.861282 -0.45312938 0.4073139
000010 69 41 35 be c3 03 57 3f c4 8f e8 be 3c 86 2c 3f
       -0.17700733 0.83990115 -0.45422184 0.67392325
000020 af 19 19 be a6 6e 01 3f dc db 79 bc 9f 87 51 bd
       -0.14951204 0.5055946 -0.0152501725 -0.05115473
000030 1c ba a5 3e b7 81 43 be 20 6f 5c bb 62 93 f1 3c
       0.32368553 -0.19092451 -0.0033635572 0.029489223
000040 09 e0 9e be dd e7 8f be 54 9e 15 3f c1 4f 59 3f
       -0.310303 -0.28106585 0.58444715 0.8488732
000050 1a 24 51 3f f0 9e 15 3f a0 8e f1 be 63 0d f8 3e
       0.8169571 0.58445644 -0.47179127 0.48447713
000060 a7 7b f0 be e2 e8 e6 be 5c 6b f8 3e 7f ff 93 3d
       -0.4696934 -0.4509955 0.4851941 0.072264664
000070 40 44 de be 05 50 90 3e e7 43 7f 3f 20 4c bd 3d
       -0.43411446 0.2818605 0.99712986 0.09243035
000080 47 c9 5d 3e 8f 9a 19 3f bb f6 95 bd bb f4 4f bf
       0.21658812 0.6000146 -0.07322451 -0.81232804
000090 1b 4c 8f be ae 69 1c bf f1 91 5c be 90 c9 90 be
       -0.2798775 -0.61098754 -0.21540047 -0.2827878
0000a0 eb 9b 03 bf 92 21 bc be 5d b2 42 be 1e 7a be 3e
       -0.51409787 -0.36744362 -0.19013353 0.37202543
0000b0 64 4e f1 be 07 66 2f be 6a 43 29 3e 44 f6 e6 be
       -0.4713012 -0.17128764 0.16529623 -0.4510976
0000c0 fd b5 21 3f 1f c9 64 be
       0.6316832 -0.22342347
